…
      2:
      - 1
      - 55
      3:
      - 3
      - 16
      - 22
      - 23
      - 35
      4: 3.10.8
      5: 0.13.4
      8:
      - 3
      - 5
action_noise:
  desc: null
  value: None
action_space:
  desc: null
  value: Box(-1.0, 1.0, (7,), float32)
actor:
  desc: null
  value: "Actor(\n  (features_extractor): CombinedExtractor(\n    (extractors): ModuleDict(\n\
    \      (achieved_goal): Flatten(start_dim=1, end_dim=-1)\n      (desired_goal):\
    \ Flatten(start_dim=1, end_dim=-1)\n      (observation): Flatten(start_dim=1,\
    \ end_dim=-1)\n    )\n  )\n  (mu): Sequential(\n    (0): Linear(in_features=22,\
    \ out_features=400, bias=True)\n    (1): ReLU()\n    (2): Linear(in_features=400,\
    \ out_features=300, bias=True)\n    (3): ReLU()\n    (4): Linear(in_features=300,\
    \ out_features=7, bias=True)\n    (5): Tanh()\n  )\n)"
actor_batch_norm_stats:
  desc: null
  value: '[]'
actor_batch_norm_stats_target:
  desc: null
  value: '[]'
actor_target:
  desc: null
  value: "Actor(\n  (features_extractor): CombinedExtractor(\n    (extractors): ModuleDict(\n\
    \      (achieved_goal): Flatten(start_dim=1, end_dim=-1)\n      (desired_goal):\
    \ Flatten(start_dim=1, end_dim=-1)\n      (observation): Flatten(start_dim=1,\
    \ end_dim=-1)\n    )\n  )\n  (mu): Sequential(\n    (0): Linear(in_features=22,\
    \ out_features=400, bias=True)\n    (1): ReLU()\n    (2): Linear(in_features=400,\
    \ out_features=300, bias=True)\n    (3): ReLU()\n    (4): Linear(in_features=300,\
    \ out_features=7, bias=True)\n    (5): Tanh()\n  )\n)"
algo:
  desc: null
  value: TD3
batch_size:
  desc: null
  value: 100
buffer_size:
  desc: null
  value: 1000000
control_type:
  desc: null
  value: js
critic:
  desc: null
  value: "ContinuousCritic(\n  (features_extractor): CombinedExtractor(\n    (extractors):\
    \ ModuleDict(\n      (achieved_goal): Flatten(start_dim=1, end_dim=-1)\n     \
    \ (desired_goal): Flatten(start_dim=1, end_dim=-1)\n      (observation): Flatten(start_dim=1,\
    \ end_dim=-1)\n    )\n  )\n  (qf0): Sequential(\n    (0): Linear(in_features=29,\
    \ out_features=400, bias=True)\n    (1): ReLU()\n    (2): Linear(in_features=400,\
    \ out_features=300, bias=True)\n    (3): ReLU()\n    (4): Linear(in_features=300,\
    \ out_features=1, bias=True)\n  )\n  (qf1): Sequential(\n    (0): Linear(in_features=29,\
    \ out_features=400, bias=True)\n    (1): ReLU()\n    (2): Linear(in_features=400,\
    \ out_features=300, bias=True)\n    (3): ReLU()\n    (4): Linear(in_features=300,\
    \ out_features=1, bias=True)\n  )\n)"
critic_batch_norm_stats:
  desc: null
  value: '[]'
critic_batch_norm_stats_target:
  desc: null
  value: '[]'
critic_target:
  desc: null
  value: "ContinuousCritic(\n  (features_extractor): CombinedExtractor(\n    (extractors):\
    \ ModuleDict(\n      (achieved_goal): Flatten(start_dim=1, end_dim=-1)\n     \
    \ (desired_goal): Flatten(start_dim=1, end_dim=-1)\n      (observation): Flatten(start_dim=1,\
    \ end_dim=-1)\n    )\n  )\n  (qf0): Sequential(\n    (0): Linear(in_features=29,\
    \ out_features=400, bias=True)\n    (1): ReLU()\n    (2): Linear(in_features=400,\
    \ out_features=300, bias=True)\n    (3): ReLU()\n    (4): Linear(in_features=300,\
    \ out_features=1, bias=True)\n  )\n  (qf1): Sequential(\n    (0): Linear(in_features=29,\
    \ out_features=400, bias=True)\n    (1): ReLU()\n    (2): Linear(in_features=400,\
    \ out_features=300, bias=True)\n    (3): ReLU()\n    (4): Linear(in_features=300,\
    \ out_features=1, bias=True)\n  )\n)"
device:
  desc: null
  value: cuda
env:
  desc: null
  value: <stable_baselines3.common.vec_env.subproc_vec_env.SubprocVecEnv object at
    0x000001CA0BCC1510>
env_name:
  desc: null
  value: PandaReachEvadeObstacles-v3
ep_info_buffer:
  desc: null
  value: deque([], maxlen=100)
ep_success_buffer:
  desc: null
  value: deque([], maxlen=100)
…
  value: 'Dict(''achieved_goal'': Box(-10.0, 10.0, (3,), float32), ''desired_goal'':
    Box(-10.0, 10.0, (3,), float32), ''observation'': Box(-10.0, 10.0, (16,), float32))'
optimize_memory_usage:
  desc: null
  value: 'False'
policy:
  desc: null
  value: "MultiInputPolicy(\n  (actor): Actor(\n    (features_extractor): CombinedExtractor(\n\
    \      (extractors): ModuleDict(\n        (achieved_goal): Flatten(start_dim=1,\
    \ end_dim=-1)\n        (desired_goal): Flatten(start_dim=1, end_dim=-1)\n    \
    \    (observation): Flatten(start_dim=1, end_dim=-1)\n      )\n    )\n    (mu):\
    \ Sequential(\n      (0): Linear(in_features=22, out_features=400, bias=True)\n\
    \      (1): ReLU()\n      (2): Linear(in_features=400, out_features=300, bias=True)\n\
    \      (3): ReLU()\n      (4): Linear(in_features=300, out_features=7, bias=True)\n\
    \      (5): Tanh()\n    )\n  )\n  (actor_target): Actor(\n    (features_extractor):\
    \ CombinedExtractor(\n      (extractors): ModuleDict(\n        (achieved_goal):\
    \ Flatten(start_dim=1, end_dim=-1)\n        (desired_goal): Flatten(start_dim=1,\
    \ end_dim=-1)\n        (observation): Flatten(start_dim=1, end_dim=-1)\n     \
    \ )\n    )\n    (mu): Sequential(\n      (0): Linear(in_features=22, out_features=400,\
    \ bias=True)\n      (1): ReLU()\n      (2): Linear(in_features=400, out_features=300,\
    \ bias=True)\n      (3): ReLU()\n      (4): Linear(in_features=300, out_features=7,\
    \ bias=True)\n      (5): Tanh()\n    )\n  )\n  (critic): ContinuousCritic(\n \
    \   (features_extractor): CombinedExtractor(\n      (extractors): ModuleDict(\n\
    \        (achieved_goal): Flatten(start_dim=1, end_dim=-1)\n        (desired_goal):\
    \ Flatten(start_dim=1, end_dim=-1)\n        (observation): Flatten(start_dim=1,\
    \ end_dim=-1)\n      )\n    )\n    (qf0): Sequential(\n      (0): Linear(in_features=29,\
    \ out_features=400, bias=True)\n      (1): ReLU()\n      (2): Linear(in_features=400,\
    \ out_features=300, bias=True)\n      (3): ReLU()\n      (4): Linear(in_features=300,\
    \ out_features=1, bias=True)\n    )\n    (qf1): Sequential(\n      (0): Linear(in_features=29,\
    \ out_features=400, bias=True)\n      (1): ReLU()\n      (2): Linear(in_features=400,\
    \ out_features=300, bias=True)\n      (3): ReLU()\n      (4): Linear(in_features=300,\
    \ out_features=1, bias=True)\n    )\n  )\n  (critic_target): ContinuousCritic(\n\
    \    (features_extractor): CombinedExtractor(\n      (extractors): ModuleDict(\n\
    \        (achieved_goal): Flatten(start_dim=1, end_dim=-1)\n        (desired_goal):\
    \ Flatten(start_dim=1, end_dim=-1)\n        (observation): Flatten(start_dim=1,\
    \ end_dim=-1)\n      )\n    )\n    (qf0): Sequential(\n      (0): Linear(in_features=29,\
    \ out_features=400, bias=True)\n      (1): ReLU()\n      (2): Linear(in_features=400,\
    \ out_features=300, bias=True)\n      (3): ReLU()\n      (4): Linear(in_features=300,\
    \ out_features=1, bias=True)\n    )\n    (qf1): Sequential(\n      (0): Linear(in_features=29,\
    \ out_features=400, bias=True)\n      (1): ReLU()\n      (2): Linear(in_features=400,\
    \ out_features=300, bias=True)\n      (3): ReLU()\n      (4): Linear(in_features=300,\
    \ out_features=1, bias=True)\n    )\n  )\n)"
policy_class:
  desc: null
  value: <class 'stable_baselines3.td3.policies.MultiInputPolicy'>
policy_delay:
  desc: null
  value: 2
policy_kwargs:
  desc: null
  value: '{}'
policy_type:
  desc: null
  value: MultiInputPolicy
render:
  desc: null
  value: false
replay_buffer:
  desc: null
  value: null
replay_buffer_class:
  desc: null
…
