…
ntiable: False\n    eps: 1e-08\n    foreach: None\n    fused: None\n    lr: 0.00073\n    maximize: False\n    weight_decay: 0\n)', 'top_quantiles_to_drop_per_net': 2, 'lr_schedule': '<function constant_fn.<locals>.func at 0x0000021A9A5923E0>', 'policy': 'MultiInputPolicy(\n  (actor): Actor(\n    (features_extractor): CombinedExtractor(\n      (extractors): ModuleDict(\n        (achieved_goal): Flatten(start_dim=1, end_dim=-1)\n        (desired_goal): Flatten(start_dim=1, end_dim=-1)\n        (observation): Flatten(start_dim=1, end_dim=-1)\n      )\n    )\n    (latent_pi): Sequential(\n      (0): Linear(in_features=44, out_features=400, bias=True)\n      (1): ReLU()\n      (2): Linear(in_features=400, out_features=300, bias=True)\n      (3): ReLU()\n    )\n    (mu): Sequential(\n      (0): Linear(in_features=300, out_features=7, bias=True)\n      (1): Hardtanh(min_val=-2.0, max_val=2.0)\n    )\n  )\n  (critic): Critic(\n    (features_extractor): CombinedExtractor(\n      (extractors): ModuleDict(\n        (achieved_goal): Flatten(start_dim=1, end_dim=-1)\n        (desired_goal): Flatten(start_dim=1, end_dim=-1)\n        (observation): Flatten(start_dim=1, end_dim=-1)\n      )\n    )\n    (qf0): Sequential(\n      (0): Linear(in_features=51, out_features=400, bias=True)\n      (1): ReLU()\n      (2): Linear(in_features=400, out_features=300, bias=True)\n      (3): ReLU()\n      (4): Linear(in_features=300, out_features=25, bias=True)\n    )\n    (qf1): Sequential(\n      (0): Linear(in_features=51, out_features=400, bias=True)\n      (1): ReLU()\n      (2): Linear(in_features=400, out_features=300, bias=True)\n      (3): ReLU()\n      (4): Linear(in_features=300, out_features=25, bias=True)\n    )\n  )\n  (critic_target): Critic(\n    (features_extractor): CombinedExtractor(\n      (extractors): ModuleDict(\n        (achieved_goal): Flatten(start_dim=1, end_dim=-1)\n        (desired_goal): Flatten(start_dim=1, end_dim=-1)\n        (observation): Flatten(start_dim=1, end_dim=-1)\n      )\n    )\n    (qf0): Sequential(\n      (0): Linear(in_features=51, out_features=400, bias=True)\n      (1): ReLU()\n      (2): Linear(in_features=400, out_features=300, bias=True)\n      (3): ReLU()\n      (4): Linear(in_features=300, out_features=25, bias=True)\n    )\n    (qf1): Sequential(\n      (0): Linear(in_features=51, out_features=400, bias=True)\n      (1): ReLU()\n      (2): Linear(in_features=400, out_features=300, bias=True)\n      (3): ReLU()\n      (4): Linear(in_features=300, out_features=25, bias=True)\n    )\n  )\n)', 'actor': 'Actor(\n  (features_extractor): CombinedExtractor(\n    (extractors): ModuleDict(\n      (achieved_goal): Flatten(start_dim=1, end_dim=-1)\n      (desired_goal): Flatten(start_dim=1, end_dim=-1)\n      (observation): Flatten(start_dim=1, end_dim=-1)\n    )\n  )\n  (latent_pi): Sequential(\n    (0): Linear(in_features=44, out_features=400, bias=True)\n    (1): ReLU()\n    (2): Linear(in_features=400, out_features=300, bias=True)\n    (3): ReLU()\n  )\n  (mu): Sequential(\n    (0): Linear(in_features=300, out_features=7, bias=True)\n    (1): Hardtanh(min_val=-2.0, max_val=2.0)\n  )\n)', 'critic': 'Critic(\n  (features_extractor): CombinedExtractor(\n    (extractors): ModuleDict(\n      (achieved_goal): Flatten(start_dim=1, end_dim=-1)\n      (desired_goal): Flatten(start_dim=1, end_dim=-1)\n      (observation): Flatten(start_dim=1, end_dim=-1)\n    )\n  )\n  (qf0): Sequential(\n    (0): Linear(in_features=51, out_features=400, bias=True)\n    (1): ReLU()\n    (2): Linear(in_features=400, out_features=300, bias=True)\n    (3): ReLU()\n    (4): Linear(in_features=300, out_features=25, bias=True)\n  )\n  (qf1): Sequential(\n    (0): Linear(in_features=51, out_features=400, bias=True)\n    (1): ReLU()\n    (2): Linear(in_features=400, out_features=300, bias=True)\n    (3): ReLU()\n    (4): Linear(in_features=300, out_features=25, bias=True)\n  )\n)', 'critic_target': 'Critic(\n  (features_extractor): CombinedExtractor(\n    (extractors): ModuleDict(\n      (achieved_goal): Flatten(start_dim=1, end_dim=-1)\n      (desired_goal): Flatten(start_dim=1, end_dim=-1)\n      (observation): Flatten(start_dim=1, end_dim=-1)\n    )\n  )\n  (qf0): Sequential(\n    (0): Linear(in_features=51, out_features=400, bias=True)\n    (1): ReLU()\n    (2): Linear(in_features=400, out_features=300, bias=True)\n    (3): ReLU()\n    (4): Linear(in_features=300, out_features=25, bias=True)\n  )\n  (qf1): Sequential(\n    (0): Linear(in_features=51, out_features=400, bias=True)\n    (1): ReLU()\n    (2): Linear(in_features=400, out_features=300, bias=True)\n    (3): ReLU()\n    (4): Linear(in_features=300, out_features=25, bias=True)\n  )\n)', 'batch_norm_stats': '[]', 'batch_norm_stats_target': '[]', '_logger': '<stable_baselines3.common.logger.Logger object at 0x0000021AA084A250>'}
2023-05-08 12:56:53,270 WARNING MsgRouterThr:10060 [router.py:message_loop():77] message_loop has been closed
