…
      - 16
      - 22
      - 23
      - 35
      4: 3.11.1
      5: 0.14.0
      8:
      - 3
      - 5
action_limiter:
  desc: null
  value: clip
action_noise:
  desc: null
  value: None
action_space:
  desc: null
  value: Box(-1.0, 1.0, (7,), float32)
actor:
  desc: null
  value: "Actor(\n  (features_extractor): CombinedExtractor(\n    (extractors): ModuleDict(\n\
    \      (achieved_goal): Flatten(start_dim=1, end_dim=-1)\n      (desired_goal):\
    \ Flatten(start_dim=1, end_dim=-1)\n      (observation): Flatten(start_dim=1,\
    \ end_dim=-1)\n    )\n  )\n  (latent_pi): Sequential(\n    (0): Linear(in_features=44,\
    \ out_features=400, bias=True)\n    (1): ReLU()\n    (2): Linear(in_features=400,\
    \ out_features=300, bias=True)\n    (3): ReLU()\n  )\n  (mu): Sequential(\n  \
    \  (0): Linear(in_features=300, out_features=7, bias=True)\n    (1): Hardtanh(min_val=-2.0,\
    \ max_val=2.0)\n  )\n)"
algo:
  desc: null
  value: TQC
algorithm:
  desc: null
  value: TQC
batch_norm_stats:
  desc: null
  value: '[]'
batch_norm_stats_target:
  desc: null
  value: '[]'
batch_size:
  desc: null
  value: 256
buffer_size:
  desc: null
  value: 300000
control_type:
  desc: null
  value: js
critic:
  desc: null
  value: "Critic(\n  (features_extractor): CombinedExtractor(\n    (extractors): ModuleDict(\n\
    \      (achieved_goal): Flatten(start_dim=1, end_dim=-1)\n      (desired_goal):\
    \ Flatten(start_dim=1, end_dim=-1)\n      (observation): Flatten(start_dim=1,\
    \ end_dim=-1)\n    )\n  )\n  (qf0): Sequential(\n    (0): Linear(in_features=51,\
    \ out_features=400, bias=True)\n    (1): ReLU()\n    (2): Linear(in_features=400,\
    \ out_features=300, bias=True)\n    (3): ReLU()\n    (4): Linear(in_features=300,\
    \ out_features=25, bias=True)\n  )\n  (qf1): Sequential(\n    (0): Linear(in_features=51,\
    \ out_features=400, bias=True)\n    (1): ReLU()\n    (2): Linear(in_features=400,\
    \ out_features=300, bias=True)\n    (3): ReLU()\n    (4): Linear(in_features=300,\
    \ out_features=25, bias=True)\n  )\n)"
critic_target:
  desc: null
  value: "Critic(\n  (features_extractor): CombinedExtractor(\n    (extractors): ModuleDict(\n\
    \      (achieved_goal): Flatten(start_dim=1, end_dim=-1)\n      (desired_goal):\
    \ Flatten(start_dim=1, end_dim=-1)\n      (observation): Flatten(start_dim=1,\
    \ end_dim=-1)\n    )\n  )\n  (qf0): Sequential(\n    (0): Linear(in_features=51,\
    \ out_features=400, bias=True)\n    (1): ReLU()\n    (2): Linear(in_features=400,\
    \ out_features=300, bias=True)\n    (3): ReLU()\n    (4): Linear(in_features=300,\
    \ out_features=25, bias=True)\n  )\n  (qf1): Sequential(\n    (0): Linear(in_features=51,\
    \ out_features=400, bias=True)\n    (1): ReLU()\n    (2): Linear(in_features=400,\
    \ out_features=300, bias=True)\n    (3): ReLU()\n    (4): Linear(in_features=300,\
    \ out_features=25, bias=True)\n  )\n)"
device:
  desc: null
  value: cpu
ent_coef:
  desc: null
  value: auto
ent_coef_optimizer:
  desc: null
  value: "Adam (\nParameter Group 0\n    amsgrad: False\n    betas: (0.9, 0.999)\n\
    \    capturable: False\n    differentiable: False\n    eps: 1e-08\n    foreach:\
    \ None\n    fused: None\n    lr: 0.00073\n    maximize: False\n    weight_decay:\
…
  value: 'Dict(''achieved_goal'': Box(-10.0, 10.0, (3,), float32), ''desired_goal'':
    Box(-10.0, 10.0, (3,), float32), ''observation'': Box(-10.0, 10.0, (38,), float32))'
optimize_memory_usage:
  desc: null
  value: 'False'
policy:
  desc: null
  value: "MultiInputPolicy(\n  (actor): Actor(\n    (features_extractor): CombinedExtractor(\n\
    \      (extractors): ModuleDict(\n        (achieved_goal): Flatten(start_dim=1,\
    \ end_dim=-1)\n        (desired_goal): Flatten(start_dim=1, end_dim=-1)\n    \
    \    (observation): Flatten(start_dim=1, end_dim=-1)\n      )\n    )\n    (latent_pi):\
    \ Sequential(\n      (0): Linear(in_features=44, out_features=400, bias=True)\n\
    \      (1): ReLU()\n      (2): Linear(in_features=400, out_features=300, bias=True)\n\
    \      (3): ReLU()\n    )\n    (mu): Sequential(\n      (0): Linear(in_features=300,\
    \ out_features=7, bias=True)\n      (1): Hardtanh(min_val=-2.0, max_val=2.0)\n\
    \    )\n  )\n  (critic): Critic(\n    (features_extractor): CombinedExtractor(\n\
    \      (extractors): ModuleDict(\n        (achieved_goal): Flatten(start_dim=1,\
    \ end_dim=-1)\n        (desired_goal): Flatten(start_dim=1, end_dim=-1)\n    \
    \    (observation): Flatten(start_dim=1, end_dim=-1)\n      )\n    )\n    (qf0):\
    \ Sequential(\n      (0): Linear(in_features=51, out_features=400, bias=True)\n\
    \      (1): ReLU()\n      (2): Linear(in_features=400, out_features=300, bias=True)\n\
    \      (3): ReLU()\n      (4): Linear(in_features=300, out_features=25, bias=True)\n\
    \    )\n    (qf1): Sequential(\n      (0): Linear(in_features=51, out_features=400,\
    \ bias=True)\n      (1): ReLU()\n      (2): Linear(in_features=400, out_features=300,\
    \ bias=True)\n      (3): ReLU()\n      (4): Linear(in_features=300, out_features=25,\
    \ bias=True)\n    )\n  )\n  (critic_target): Critic(\n    (features_extractor):\
    \ CombinedExtractor(\n      (extractors): ModuleDict(\n        (achieved_goal):\
    \ Flatten(start_dim=1, end_dim=-1)\n        (desired_goal): Flatten(start_dim=1,\
    \ end_dim=-1)\n        (observation): Flatten(start_dim=1, end_dim=-1)\n     \
    \ )\n    )\n    (qf0): Sequential(\n      (0): Linear(in_features=51, out_features=400,\
    \ bias=True)\n      (1): ReLU()\n      (2): Linear(in_features=400, out_features=300,\
    \ bias=True)\n      (3): ReLU()\n      (4): Linear(in_features=300, out_features=25,\
    \ bias=True)\n    )\n    (qf1): Sequential(\n      (0): Linear(in_features=51,\
    \ out_features=400, bias=True)\n      (1): ReLU()\n      (2): Linear(in_features=400,\
    \ out_features=300, bias=True)\n      (3): ReLU()\n      (4): Linear(in_features=300,\
    \ out_features=25, bias=True)\n    )\n  )\n)"
policy_class:
  desc: null
  value: <class 'sb3_contrib.tqc.policies.MultiInputPolicy'>
policy_kwargs:
  desc: null
  value: '{''log_std_init'': -3, ''net_arch'': [400, 300], ''use_sde'': True}'
policy_type:
  desc: null
  value: MultiInputPolicy
prior_steps:
  desc: null
  value: 0
randomize_robot_pose:
  desc: null
  value: false
…
