…
Box(-10.0, 10.0, (16,), float32))", 'action_space': 'Box(-1.0, 1.0, (7,), float32)', 'n_envs': 1, 'num_timesteps': 0, '_total_timesteps': 400000, '_num_timesteps_at_start': 0, 'seed': 'None', 'action_noise': 'None', 'start_time': 1667919912898204100, 'policy': 'MultiInputPolicy(\n  (actor): Actor(\n    (features_extractor): CombinedExtractor(\n      (extractors): ModuleDict(\n        (achieved_goal): Flatten(start_dim=1, end_dim=-1)\n        (desired_goal): Flatten(start_dim=1, end_dim=-1)\n        (observation): Flatten(start_dim=1, end_dim=-1)\n      )\n    )\n    (mu): Sequential(\n      (0): Linear(in_features=22, out_features=400, bias=True)\n      (1): ReLU()\n      (2): Linear(in_features=400, out_features=300, bias=True)\n      (3): ReLU()\n      (4): Linear(in_features=300, out_features=7, bias=True)\n      (5): Tanh()\n    )\n  )\n  (actor_target): Actor(\n    (features_extractor): CombinedExtractor(\n      (extractors): ModuleDict(\n        (achieved_goal): Flatten(start_dim=1, end_dim=-1)\n        (desired_goal): Flatten(start_dim=1, end_dim=-1)\n        (observation): Flatten(start_dim=1, end_dim=-1)\n      )\n    )\n    (mu): Sequential(\n      (0): Linear(in_features=22, out_features=400, bias=True)\n      (1): ReLU()\n      (2): Linear(in_features=400, out_features=300, bias=True)\n      (3): ReLU()\n      (4): Linear(in_features=300, out_features=7, bias=True)\n      (5): Tanh()\n    )\n  )\n  (critic): ContinuousCritic(\n    (features_extractor): CombinedExtractor(\n      (extractors): ModuleDict(\n        (achieved_goal): Flatten(start_dim=1, end_dim=-1)\n        (desired_goal): Flatten(start_dim=1, end_dim=-1)\n        (observation): Flatten(start_dim=1, end_dim=-1)\n      )\n    )\n    (qf0): Sequential(\n      (0): Linear(in_features=29, out_features=400, bias=True)\n      (1): ReLU()\n      (2): Linear(in_features=400, out_features=300, bias=True)\n      (3): ReLU()\n      (4): Linear(in_features=300, out_features=1, bias=True)\n    )\n    (qf1): Sequential(\n      (0): Linear(in_features=29, out_features=400, bias=True)\n      (1): ReLU()\n      (2): Linear(in_features=400, out_features=300, bias=True)\n      (3): ReLU()\n      (4): Linear(in_features=300, out_features=1, bias=True)\n    )\n  )\n  (critic_target): ContinuousCritic(\n    (features_extractor): CombinedExtractor(\n      (extractors): ModuleDict(\n        (achieved_goal): Flatten(start_dim=1, end_dim=-1)\n        (desired_goal): Flatten(start_dim=1, end_dim=-1)\n        (observation): Flatten(start_dim=1, end_dim=-1)\n      )\n    )\n    (qf0): Sequential(\n      (0): Linear(in_features=29, out_features=400, bias=True)\n      (1): ReLU()\n      (2): Linear(in_features=400, out_features=300, bias=True)\n      (3): ReLU()\n      (4): Linear(in_features=300, out_features=1, bias=True)\n    )\n    (qf1): Sequential(\n      (0): Linear(in_features=29, out_features=400, bias=True)\n      (1): ReLU()\n      (2): Linear(in_features=400, out_features=300, bias=True)\n      (3): ReLU()\n      (4): Linear(in_features=300, out_features=1, bias=True)\n    )\n  )\n)', 'learning_rate': 0.001, 'tensorboard_log': 'runs/313yv0p4', 'lr_schedule': '<function constant_fn.<locals>.func at 0x000001937293AE60>', '_last_obs': "OrderedDict([('achieved_goal', array([[ 3.8439669e-02, -2.1944723e-12,  1.9740014e-01]], dtype=float32)), ('desired_goal', array([[-0.180344  ,  0.14353259,  0.22870879]], dtype=float32)),
…
e', 'buffer_size': 1000000, 'batch_size': 100, 'learning_starts': 100, 'tau': 0.005, 'gamma': 0.99, 'gradient_steps': -1, 'optimize_memory_usage': 'False', 'replay_buffer_kwargs': '{}', '_episode_storage': 'None', 'train_freq': "TrainFreq(frequency=1, unit=<TrainFrequencyUnit.EPISODE: 'episode'>)", 'actor': 'Actor(\n  (features_extractor): CombinedExtractor(\n    (extractors): ModuleDict(\n      (achieved_goal): Flatten(start_dim=1, end_dim=-1)\n      (desired_goal): Flatten(start_dim=1, end_dim=-1)\n      (observation): Flatten(start_dim=1, end_dim=-1)\n    )\n  )\n  (mu): Sequential(\n    (0): Linear(in_features=22, out_features=400, bias=True)\n    (1): ReLU()\n    (2): Linear(in_features=400, out_features=300, bias=True)\n    (3): ReLU()\n    (4): Linear(in_features=300, out_features=7, bias=True)\n    (5): Tanh()\n  )\n)', 'replay_buffer': '<stable_baselines3.her.her_replay_buffer.HerReplayBuffer object at 0x000001937293DC60>', 'use_sde_at_warmup': 'False', 'policy_delay': 2, 'target_noise_clip': 0.5, 'target_policy_noise': 0.2, 'actor_target': 'Actor(\n  (features_extractor): CombinedExtractor(\n    (extractors): ModuleDict(\n      (achieved_goal): Flatten(start_dim=1, end_dim=-1)\n      (desired_goal): Flatten(start_dim=1, end_dim=-1)\n      (observation): Flatten(start_dim=1, end_dim=-1)\n    )\n  )\n  (mu): Sequential(\n    (0): Linear(in_features=22, out_features=400, bias=True)\n    (1): ReLU()\n    (2): Linear(in_features=400, out_features=300, bias=True)\n    (3): ReLU()\n    (4): Linear(in_features=300, out_features=7, bias=True)\n    (5): Tanh()\n  )\n)', 'critic': 'ContinuousCritic(\n  (features_extractor): CombinedExtractor(\n    (extractors): ModuleDict(\n      (achieved_goal): Flatten(start_dim=1, end_dim=-1)\n      (desired_goal): Flatten(start_dim=1, end_dim=-1)\n      (observation): Flatten(start_dim=1, end_dim=-1)\n    )\n  )\n  (qf0): Sequential(\n    (0): Linear(in_features=29, out_features=400, bias=True)\n    (1): ReLU()\n    (2): Linear(in_features=400, out_features=300, bias=True)\n    (3): ReLU()\n    (4): Linear(in_features=300, out_features=1, bias=True)\n  )\n  (qf1): Sequential(\n    (0): Linear(in_features=29, out_features=400, bias=True)\n    (1): ReLU()\n    (2): Linear(in_features=400, out_features=300, bias=True)\n    (3): ReLU()\n    (4): Linear(in_features=300, out_features=1, bias=True)\n  )\n)', 'critic_target': 'ContinuousCritic(\n  (features_extractor): CombinedExtractor(\n    (extractors): ModuleDict(\n      (achieved_goal): Flatten(start_dim=1, end_dim=-1)\n      (desired_goal): Flatten(start_dim=1, end_dim=-1)\n      (observation): Flatten(start_dim=1, end_dim=-1)\n    )\n  )\n  (qf0): Sequential(\n    (0): Linear(in_features=29, out_features=400, bias=True)\n    (1): ReLU()\n    (2): Linear(in_features=400, out_features=300, bias=True)\n    (3): ReLU()\n    (4): Linear(in_features=300, out_features=1, bias=True)\n  )\n  (qf1): Sequential(\n    (0): Linear(in_features=29, out_features=400, bias=True)\n    (1): ReLU()\n    (2): Linear(in_features=400, out_features=300, bias=True)\n    (3): ReLU()\n    (4): Linear(in_features=300, out_features=1, bias=True)\n  )\n)', 'actor_batch_norm_stats': '[]', 'critic_batch_norm_stats': '[]', 'actor_batch_norm_stats_target': '[]', 'critic_batch_norm_stats_target': '[]'}
2022-11-08 17:54:22,117 INFO    MainThread:2944 [wandb_run.py:_finish():1746] finishing run raikowand/panda-gym/313yv0p4
2022-11-08 17:54:22,117 INFO    MainThread:2944 [wandb_run.py:_atexit_cleanup():1949] got exitcode: 0
…
